…
u001b[0m \u001b[1m0s\u001b[0m 67ms/step\n\u001b[1m4/4\u001b[0m \u001b[32m━━━━━━━━━━━━━━━━━━━━\u001b[0m\u001b[37m\u001b[0m \u001b[1m0s\u001b[0m 22ms/step\n```\n\n\n:::\n\n```{.r .cell-code}\n# Print the result\ntensorflow::tf$keras$Model$summary(model)\n```\n\n::: {.cell-output .cell-output-stdout}\n\n```\nModel: \"functional\"\n┌─────────────────────────────────┬────────────────────────┬───────────────┐\n│ Layer (type)                    │ Output Shape           │       Param # │\n├─────────────────────────────────┼────────────────────────┼───────────────┤\n│ input_layer (InputLayer)        │ (None, 13)             │             0 │\n├─────────────────────────────────┼────────────────────────┼───────────────┤\n│ dense_3 (Dense)                 │ (None, 128)            │         1,792 │\n├─────────────────────────────────┼────────────────────────┼───────────────┤\n│ dropout_2 (Dropout)             │ (None, 128)            │             0 │\n├─────────────────────────────────┼────────────────────────┼───────────────┤\n│ dense_2 (Dense)                 │ (None, 128)            │        16,512 │\n├─────────────────────────────────┼────────────────────────┼───────────────┤\n│ dropout_1 (Dropout)             │ (None, 128)            │             0 │\n├─────────────────────────────────┼────────────────────────┼───────────────┤\n│ dense_1 (Dense)                 │ (None, 128)            │        16,512 │\n├─────────────────────────────────┼────────────────────────┼───────────────┤\n│ dropout (Dropout)               │ (None, 128)            │             0 │\n├─────────────────────────────────┼────────────────────────┼───────────────┤\n│ dense (Dense)                   │ (None, 1)              │           129 │\n└─────────────────────────────────┴────────────────────────┴───────────────┘\n Total params: 104,837 (409.52 KB)\n Trainable params: 34,945 (136.50 KB)\n Non-trainable params: 0 (0.00 B)\n Optimizer params: 69,892 (273.02 KB)\n```\n\n\n:::\n:::\n\n\n\n\nExtract the final training and validation loss\n\n\n\n::: {.cell}\n\n```{.r .cell-code}\nfinal_training_loss <- history$history$loss[length(hi
…
